airflow_dags/models/model_scripted.pt (torch, 166803 bytes, 7 tensors)

weight f4 [128, 43]
0	0x3e2d8acc	0.16947478
1	0xbd009deb	-0.031400602
2	0xbd93e3dd	-0.07221196
3	0x3d6b1536	0.057393275
4	0x3e170cdf	0.14751004
5	0xbdb12358	-0.086493194
6	0x3c838f84	0.016059645
7	0x3db3b46d	0.08774648
8	0xbe1415cf	-0.14461444
9	0xbdb73627	-0.089458756
10	0x3db62a74	0.08894816
11	0xbddad32b	-0.10684808
12	0xbdd3f151	-0.10348762
13	0xbda67112	-0.08127035
14	0xbdc3d841	-0.095627315
15	0xbd4ae411	-0.049533907
16	0xbbfb3ba1	-0.0076670204
17	0x3e02dcdc	0.12779564
18	0xbbc27b75	-0.0059351274
19	0x3d7ca2d6	0.06167873
20	0x3ca356e5	0.019938895
21	0x3d7274a2	0.05919326
22	0xbd9cd2da	-0.07657404
23	0xbdf265dd	-0.11835835
24	0x3db1a1c4	0.086734325
25	0x3d15f972	0.036614843
26	0xbde63c42	-0.11241962
27	0xbdf0d7df	-0.11759924
28	0x3e5c76e2	0.21529725
29	0x3e14e62c	0.14540929
30	0xbd5257f5	-0.051353414
31	0x3e59edfd	0.21282192
32	0x3d268f59	0.04066405
33	0x3e01cb6b	0.12675254
34	0xbc95691b	-0.018238595
35	0x3e150037	0.14550863
36	0xbd4bd878	-0.049766988
37	0xbde90fef	-0.11379992
38	0xbc5fde04	-0.0136637725
39	0x3caa896a	0.020817477
40	0xbb964698	-0.004586052
41	0xbd4d9409	-0.050190005
42	0xbc061643	-0.008184019
43	0xbc94e852	-0.018177185
44	0x3ddb29b4	0.107013136
45	0x3dc0170a	0.09379394
46	0xbdec5b45	-0.11540846
47	0xbd278c26	-0.04090514
48	0x3cc0073e	0.023440953
49	0xbdba9df7	-0.09112161
50	0x3d738474	0.05945249
51	0x3c220946	0.009889906
52	0x3dd7e342	0.10541393
53	0xbd198f16	-0.037489973
54	0x3cbcda66	0.02305336
55	0x3e114f5b	0.14190428
56	0x3dbc26b4	0.091870695
57	0xbe0ad763	-0.13558726
58	0x3da2d187	0.079501204
59	0x3d472e5b	0.048628192
60	0x3db64f82	0.08901884
61	0x3df4320d	0.11923609
62	0x3e1f3892	0.15548924
63	0x3c6a98fe	0.014318703
64	0x3e143fc7	0.14477454
65	0xbe281acf	-0.16416477
66	0x3d126ebb	0.035750132
67	0x3d6a0cc1	0.05714107
68	0xbe4fe7bd	-0.20303245
69	0x3dffd77e	0.12492274
70	0x3e053e3c	0.13012022
71	0x3b3ef962	0.0029140343
72	0x3ce6fff7	0.028198225
73	0x3df0bc6b	0.11754688
74	0x3dba416f	0.09094512
75	0xbd1be68f	-0.038061675
76	0x3d647870	0.05577892
77	0x3dd28050	0.1027838
78	0xbddb1fc6	-0.1069942
79	0xbdc76c37	-0.09737437
80	0xbd099a00	-0.03359413
81	0x3d3af3a2	0.045642503
82	0xbe2cc8ad	-0.16873427
83	0xbd962c09	-0.07332618
84	0xbdadc4fe	-0.08484839
85	0xbc7598f4	-0.01499008
86	0xbc6ed539	-0.014577203
87	0xbe03ebbb	-0.12882893
88	0xbd32947e	-0.043598644
89	0xbd6fb626	-0.05852332
90	0x3daaece2	0.08345963
91	0x3dcca65e	0.099926695
92	0x3d8e2b15	0.06941811
93	0xbdb3f4cd	-0.087869264
94	0xbe0b7703	-0.13619618
95	0xbd9b9c8a	-0.07598217
96	0x3bea8f92	0.007158228
97	0xbdb9eb8c	-0.0907813
98	0x3dfc2e3c	0.12313506
99	0xbcf4b390	-0.029870778
100	0x3d8fdc66	0.070244595
101	0xbdc534fd	-0.09629247
102	0x3c93a68b	0.01802375
103	0x3d375fd2	0.044769116
104	0x3db0f2cc	0.0864006
105	0x3d73da0d	0.05953412
106	0xbe2493a6	-0.16071948
107	0x3e027ccd	0.1274292
108	0x3dae41a7	0.08508616
109	0xbdd90ce0	-0.10598159
110	0x3d40a1f3	0.047029447
111	0xbd731d9b	-0.059354406
112	0x3dfa86f2	0.1223277
113	0x3db14a15	0.08656708
114	0x3e5f3edc	0.21801323
115	0xbe1de121	-0.15417911
116	0xbdff5cc1	-0.12468863
117	0x3c2e2f9e	0.01063147
118	0x3d1b07ce	0.03784924
119	0xbd04bf5e	-0.032409064
120	0xbde6f589	-0.11277301
121	0x3da4e852	0.08052124
122	0xbce2f52e	-0.027704801
123	0xbe607c4c	-0.21922415
124	0xbe10ce67	-0.14141236
125	0xbd81c186	-0.0633574
126	0xbd035629	-0.03206459
127	0x3db0c652	0.086315766
128	0x3db837a5	0.08994988
129	0xbcc9e83c	-0.02464687
130	0x3db8c573	0.090220354
131	0xbdbe75f7	-0.09299844
132	0xbd3832b2	-0.04497022
133	0x3cdf702a	0.027275164
134	0xbd93ed04	-0.072229415
135	0xbe00b2e1	-0.12568237
136	0xbd31346d	-0.043262888
137	0x3e1c5926	0.15268382
138	0x3dbb7254	0.09152666
139	0xbd9d4840	-0.07679796
140	0x3c83bec0	0.016082168
141	0x3d0db37c	0.034594998
142	0x3dfba8b9	0.12288041
143	0x3d8b058f	0.067881696
144	0x3d5cb381	0.053882126
145	0x3e0d749e	0.13814017
146	0xbc135232	-0.008991765
147	0x3ce80312	0.028321777
148	0x3ccfee55	0.0253822
149	0xbe22efc7	-0.1591178
150	0x3dc336b2	0.09531917
151	0x3d986d1c	0.07442686
152	0xbd52241e	-0.051303975
153	0xbe0a415e	-0.13501498
154	0x3dbacc85	0.0912104
155	0xbddea273	-0.108708285
156	0x3e30f87c	0.1728229
157	0xbcca9ff0	-0.024734467
158	0xbd3e031f	-0.046389695
159	0x3e2d42f9	0.1692008
160	0xbcaffd19	-0.021482991
161	0x3d00ae21	0.031416062
162	0xbddcade1	-0.10775352
163	0xbe0418e7	-0.12900124
164	0x3dae12c4	0.08499673
165	0xbc9f1cf7	-0.019422991
166	0x3d619974	0.055077985
167	0xbde0f103	-0.10983469
168	0x3e0a2d45	0.13493831
169	0x3d82560f	0.063640706
170	0x3e03a855	0.12857182
171	0x3e36f534	0.17866975
172	0xbe109f26	-0.1412321
173	0xbe1d705d	-0.15374894
174	0xbda4e20b	-0.08050927
175	0x3c4e05d3	0.012574631
176	0xbe240c51	-0.16020323
177	0xbe07e2d5	-0.13270123
178	0x3d336c24	0.043804303
179	0xbd129bf2	-0.035793252
180	0xbdad0352	-0.08447899
181	0x3d8668f6	0.065629885
182	0x3b588b69	0.003304208
183	0x3de63eff	0.11242484
184	0xbce59252	-0.028023873
185	0xbdcbfcc2	-0.09960319
186	0x3d84c399	0.0648262
187	0x3e0409d6	0.12894377
188	0xbcf7247c	-0.030168764
189	0xbdae8660	-0.08521724
190	0xbc9269a5	-0.01787264
191	0xbdab8d06	-0.083765075
192	0xbdde81c7	-0.10864597
193	0x3de7516c	0.11294827
194	0x3dc32e83	0.09530356
195	0x3c90fe8a	0.017699499
196	0x3e073867	0.1320511
197	0xbd64bbd6	-0.055843197
198	0xbb2cd786	-0.002637358
199	0xbe0cbe92	-0.13744572
200	0x3dd4c040	0.10388231
201	0xbda19184	-0.07889083
202	0x3de0b374	0.10971728
203	0xbc93dbb6	-0.018049102
204	0xbe2cb9d1	-0.16867758
205	0xbe2a8206	-0.16651163
206	0xbd3cdfb5	-0.04611178
207	0x3e316706	0.17324457
208	0x3d9f606a	0.077820614
209	0xbd574f22	-0.0525657
210	0x3c3ddf4c	0.011588883
211	0x3d991223	0.074741624
212	0xbd746c87	-0.059673812
213	0x3dfcba82	0.12340261
214	0x3dc054ff	0.09391212
215	0xb8830206	-6.246944e-05
216	0xbe02545d	-0.12727495
217	0x3d7498f2	0.059716173
218	0x3e0092e7	0.12556039
219	0xbdec1e25	-0.11529187
220	0x3c9ac38a	0.018892068
221	0xbdb47d3e	-0.088129506
222	0xbd91e83b	-0.071243726
223	0x3dabd245	0.08389715
224	0xbd0654e3	-0.032795798
225	0x3dab8eab	0.08376821
226	0xbe09c96f	-0.13455747
227	0xbd2c88b4	-0.042122558
228	0xbd494e8a	-0.049147166
229	0xbbbd6d6f	-0.0057808678
230	0x3e20a9a7	0.15689717
231	0x3da2395f	0.07921099
232	0x3d9d8485	0.07691292
233	0x3d870a7c	0.065937966
234	0x3e1d7b79	0.15379132
235	0x3e0e06f4	0.1386984
236	0x3e10dcc3	0.14146714
237	0xbe112a83	-0.14176373
238	0xbe611f0e	-0.21984503
239	0xbe0985a4	-0.13429886
240	0xbd52f827	-0.051506188
241	0x3e6696c9	0.22518457
242	0x3cf49dba	0.029860366
243	0x3e29eb54	0.16593677
244	0x3ce70339	0.028199779
245	0xbde2f3a2	-0.110816255
246	0xbd560ff1	-0.052261297
247	0xbd939926	-0.07206945
248	0xbc4140b4	-0.011795212
249	0xbbf99da2	-0.0076176682
250	0xbc060c1e	-0.0081816
251	0xbe02a7a9	-0.1275927
252	0xbd8e321a	-0.0694315
253	0xbda8a9e3	-0.08235528
254	0xbda97a54	-0.08275285
255	0xbc0aea9b	-0.008478786

bias f4 [128]
0	0xbd41f356	-0.047351204
1	0xbd5473a2	-0.05186809
2	0xbe23affe	-0.15985104
3	0xbd9e6c6e	-0.07735525
4	0xbdf8a9f3	-0.1214179
5	0xbdaffada	-0.08592768
6	0xbdda6105	-0.10663036
7	0xbe62a8db	-0.22134726
8	0xbc9e6e08	-0.019339576
9	0x3c60d60c	0.013722908
10	0xbdafb3bc	-0.085792035
11	0x3ccbaa24	0.024861403
12	0x3e09e840	0.13467503
13	0x3c5f55e3	0.013631317
14	0xbd7c9575	-0.06166597
15	0xbd5c3d59	-0.053769443
16	0xbe2b3c7f	-0.16722296
17	0xbd9e36f4	-0.07725325
18	0xbda8062d	-0.08204303
19	0xbdf22c78	-0.11824888
20	0xbe50f7ae	-0.20406982
21	0xbdc61e33	-0.09673729
22	0xbe999c42	-0.30002028
23	0x3e3613f1	0.17781045
24	0xbdbf98cd	-0.09355316
25	0xbd5638b7	-0.05230018
26	0x3d5fe0fd	0.054657925
27	0xbe06d4ff	-0.13167189
28	0x3d396963	0.04526652
29	0xbdcf7e5d	-0.10131524
30	0xbed58711	-0.4170461
31	0x3e258b00	0.16166306
32	0xbdf835e8	-0.12119657
33	0xbe4e0c82	-0.20121959
34	0xbdebbf88	-0.11511141
35	0xbd9b5278	-0.07584089
36	0xbe1b8e9f	-0.15191124
37	0xbdca9d34	-0.09893265
38	0xbd33b160	-0.04387033
39	0xbec45a64	-0.38350213
40	0xbd7c4b83	-0.06159545
41	0xbda85429	-0.08219177
42	0xbd3da0d1	-0.046295945
43	0x3dc17433	0.09445991
44	0xbdd2618f	-0.10272514
45	0xbee85809	-0.45379665
46	0xbdcba21e	-0.09943031
47	0x3b156d33	0.0022800684
48	0xbde7c764	-0.113173276
49	0x3dc1b5e0	0.09458518
50	0x3dcc7f70	0.09985244
51	0xbd652ffa	-0.055953957
52	0x3db66eaa	0.08907826
53	0x3d52bb72	0.051448293
54	0x3d967811	0.073471196
55	0xbe20c8a9	-0.15701546
56	0x3d6de19d	0.05807649
57	0xbd00800b	-0.03137211
58	0xbe7f99e6	-0.24961051
59	0x3d9f7d53	0.077875756
60	0x3df5a7c5	0.1199489
61	0xbe2d98ef	-0.16952871
62	0xbd88e156	-0.066836044
63	0x3d8fb2a6	0.07016496
64	0xbdeb9495	-0.11502949
65	0xbdba7d82	-0.0910597
66	0x3dd6e768	0.10493356
67	0xbd155cf2	-0.036465593
68	0xbc41ed44	-0.011836354
69	0x3dfd61a0	0.12372136
70	0xbd9cc0a2	-0.07653929
71	0xbd7e68e2	-0.062111743
72	0xbd8b4333	-0.067999266
73	0x3d7a3d7b	0.06109379
74	0xbd7be55d	-0.061498035
75	0xbb12acdc	-0.0022380864
76	0x3d3ac44d	0.045597363
77	0xbdc1c52e	-0.09461437
78	0xbded6fe5	-0.11593608
79	0xbdf56f1d	-0.11984084
80	0xbe12ae14	-0.14324218
81	0x3e29589f	0.16537713
82	0x3dd62b1f	0.104574434
83	0xbe06cb45	-0.13163479
84	0x3d70270d	0.05863099
85	0xbd68e92c	-0.056862995
86	0xbd8b620e	-0.06805812
87	0xbdda76ca	-0.106671885
88	0xbd7b568f	-0.061361846
89	0xbd376dfa	-0.044782616
90	0x3da7a30e	0.08185397
91	0xbe3bca03	-0.1833878
92	0xbdc99969	-0.09843714
93	0xbd4f7241	-0.05064607
94	0xbddec97b	-0.10878273
95	0x3d5b67e5	0.05356588
96	0x3e40aba9	0.18815483
97	0xbd09824b	-0.033571523
98	0xbe8237d5	-0.2543322
99	0x3c9bf22d	0.019036377
100	0xbe8a8d8b	-0.27061114
101	0xbd992341	-0.07477427
102	0xbe0a59ff	-0.13510893
103	0xbe1e407b	-0.15454285
104	0xbc48a9f5	-0.012247552
105	0xbd14ba2e	-0.036310367
106	0xbdbcfc5c	-0.09227821
107	0x3de5c976	0.11220066
108	0xbdfc5703	-0.12321284
109	0xbdcd85b1	-0.10035265
110	0x3dc589e5	0.09645442
111	0x3c8dc311	0.017304929
112	0x3d246d72	0.040143438
113	0x3d14357a	0.03618381
114	0xbdc58e4c	-0.096462816
115	0xbd961049	-0.07327325
116	0xbda58e89	-0.08083827
117	0xbd84e95a	-0.06489821
118	0x3e1471b7	0.14496504
119	0x3e3810e8	0.17975199
120	0xbda467b5	-0.08027593
121	0xbd2bdb27	-0.041957047
122	0xbe490855	-0.19632085
123	0xbe14d8ae	-0.14535782
124	0x3e2ab8c3	0.16672044
125	0x3c849b11	0.016187223
126	0x3d86571a	0.06559582
127	0xbee1edfc	-0.4412688

weight f4 [128, 128]
0	0x3c0c1062	0.008548828
1	0xbd45894c	-0.04822664
2	0x3cc96cf3	0.024588084
3	0x3dde1900	0.10844612
4	0xbd85b791	-0.06529153
5	0x3cdada91	0.026715549
6	0xbd95b5b0	-0.07310045
7	0x3cf3c6db	0.029757908
8	0xbd0b1952	-0.033959694
9	0xbd597854	-0.05309327
10	0xbc8e4bcc	-0.017370127
11	0xbda02af6	-0.07820694
12	0xbdf8571f	-0.12125992
13	0x3e02ba1f	0.12766312
14	0xbdf48b26	-0.11940603
15	0x3d095a98	0.033533663
16	0xbc22dc30	-0.009940192
17	0x3dfc5704	0.123212844
18	0xbd57cfde	-0.052688472
19	0x3d5e3578	0.05425021
20	0xbc0c5245	-0.008564536
21	0xbe03e8c7	-0.12881766
22	0x3d10b967	0.035333063
23	0xbdc1ef3b	-0.09469458
24	0xbd559e03	-0.052152645
25	0x3d2ba1ae	0.041902237
26	0x3d630879	0.055428002
27	0xbe105fc2	-0.14099029
28	0xbcbc48aa	-0.022983868
29	0x3d90580a	0.07048042
30	0xbd01de79	-0.031706307
31	0xbc5795af	-0.013158246
32	0xbd8070c5	-0.06271509
33	0xbceb0991	-0.028691085
34	0xbbb58083	-0.0055390014
35	0xbcc365f0	-0.023852319
36	0xbc6ea76b	-0.014566283
37	0x3aa616ab	0.001267155
38	0x3d5e18d9	0.054222915
39	0x3e0c6203	0.13709264
40	0x3c71c696	0.014756819
41	0xbc9d087b	-0.019169083
42	0x3ca9fe75	0.020751217
43	0xbe14f5c6	-0.1454688
44	0xbd87fd3e	-0.06640099
45	0x3dff7b3b	0.12474676
46	0x3beb5353	0.007181564
47	0xbd81e29e	-0.06342052
48	0x3d27b10d	0.040940333
49	0x3cffbf14	0.031219043
50	0xbe48f056	-0.19622931
51	0x3ccab572	0.024744723
52	0x3d2cfb46	0.04223182
53	0x3e21c0b0	0.1579616
54	0x3da5c9e2	0.08095147
55	0xbcbd6815	-0.02312092
56	0x3dd5da5a	0.10442038
57	0xbd8e508e	-0.06948958
58	0xbba1ef36	-0.0049418462
59	0xbd82b7e2	-0.06382729
60	0x3dd313f4	0.1030654
61	0x3bcb9747	0.006213102
62	0x3dd975ae	0.10618149
63	0xba536587	-0.000806414
64	0xbcd07cd3	-0.025450146
65	0xbd8efe9f	-0.06982159
66	0xbe05d3be	-0.13069054
67	0xbd4cbfe7	-0.0499877
68	0xbde57f87	-0.112059645
69	0x3db3a5db	0.08771869
70	0xbdb67155	-0.08908335
71	0x3c8859f6	0.01664446
72	0xbd19b92f	-0.03753012
73	0x3cdf4200	0.027253151
74	0xbdde02e4	-0.10840395
75	0x3bf6179f	0.00751014
76	0x3d0fe1da	0.0351275
77	0x3d40ba4a	0.04705266
78	0x3c757914	0.014982481
79	0x3d905e95	0.0704929
80	0x3b5a6e32	0.0033329842
81	0x3de55b5c	0.11199066
82	0xbde1eb27	-0.1103118
83	0x3d3e2f8c	0.046432063
84	0x3dcbcf8f	0.09951698
85	0x3da7defc	0.08196828
86	0xbd99ed44	-0.07515958
87	0x3dfb8013	0.122802876
88	0x3d5ef8f5	0.054436643
89	0xbd8b5fdb	-0.06805392
90	0xbe13c6ca	-0.14431301
91	0xbd62c082	-0.05535937
92	0x3bf0b2d2	0.007345536
93	0xbcb83504	-0.022486217
94	0xbd4a01f4	-0.04931827
95	0xbd0863ea	-0.03329841
96	0xbcac7761	-0.021053018
97	0xbc8f6107	-0.01750232
98	0xbd8c70dc	-0.06857464
99	0x3d77ae5e	0.060469024
100	0x3d689445	0.056782026
101	0xbdf4f179	-0.1196012
102	0xbd9d032a	-0.07666619
103	0xbcc7cf41	-0.024390819
104	0xbd8342cf	-0.06409227
105	0x3d9ff7eb	0.078109585
106	0xbcf816ed	-0.03028437
107	0xbe0734a8	-0.1320368
108	0xbd95e5b3	-0.07319202
109	0xbcafb4e0	-0.021448553
110	0x3ce65d31	0.028120609
111	0xbb242a5c	-0.0025049662
112	0x3dd4ee76	0.10397045
113	0x3e143a53	0.14475374
114	0xbd38892d	-0.045052696
115	0x3cd1c08e	0.025604513
116	0xbe03678a	-0.12832466
117	0xbc029e54	-0.007972319
118	0xbc9c70dc	-0.019096784
119	0x3e11edea	0.14250913
120	0xbcec5d38	-0.028853044
121	0xbb0aa8b7	-0.002115769
122	0x3d9d5f5b	0.07684203
123	0x3e03da16	0.12876162
124	0xbe1292e8	-0.14313853
125	0x3d0ab814	0.033866957
126	0x3c59dfb1	0.013297961
127	0xbe1318dd	-0.14364953
128	0x3d7c175a	0.061545707
129	0xbc3ffa50	-0.011717394
130	0xbd58400d	-0.05279546
131	0x3d1a11d6	0.037614666
132	0xbb3082a0	-0.0026933327
133	0xbbb6a6cd	-0.0055740834
134	0x3d45e307	0.048312213
135	0xbcbe59a2	-0.0232361
136	0x3d73c0e2	0.05951012
137	0xbd47312d	-0.048630882
138	0xbd0ea577	-0.03482577
139	0xbd981431	-0.07425726
140	0xbc814bc5	-0.0157832
141	0xbd265a8e	-0.040613703
142	0x3c3ab43b	0.011395509
143	0x3a20f446	0.0006139915
144	0x3d4ad483	0.049519073
145	0xbd53b70c	-0.05168824
146	0xbd0f7bd4	-0.0350302
147	0x3cf74a0a	0.030186672
148	0xbbe8e95d	-0.007107897
149	0xbd72b1f2	-0.059251733
150	0xbd87e4a5	-0.06635407
151	0x3cb25871	0.021770688
152	0xbd8e4f44	-0.069487125
153	0xbd8a8580	-0.06763744
154	0x3d6c3fbd	0.057677973
155	0xbd77633a	-0.060397364
156	0xbd122be9	-0.035686407
157	0x3d3eb2d2	0.046557255
158	0xbcbf74e2	-0.023371164
159	0x3d4df3dc	0.05028139
160	0xbd52d957	-0.051476803
161	0xbcb97431	-0.022638412
162	0x3d5935be	0.05302977
163	0xbd6b52ff	-0.057452198
164	0xbcb6dfda	-0.022323538
165	0x3d957dd7	0.07299393
166	0xbd822f38	-0.063566625
167	0x3d72c189	0.0592666
168	0x3ca0a2b8	0.01960884
169	0x3d7b6fd9	0.061385963
170	0x3d5f9d1b	0.054593187
171	0xbcd067d6	-0.025440138
172	0xbcbbdc85	-0.0229323
173	0x3d8bcd06	0.068262145
174	0x3d09b37d	0.03361844
175	0x3d7e677a	0.0621104
176	0x3bbe5102	0.0058079967
177	0x3d60655d	0.054784168
178	0xbd8424b0	-0.0645231
179	0xbd215a05	-0.03939249
180	0x3a1d6f8f	0.0006005698
181	0x3ca429a7	0.020039393
182	0x3d7e8f1b	0.062148195
183	0xbb8ccb82	-0.004296721
184	0xbd7ccb3f	-0.061717268
185	0x3ce069a7	0.027394129
186	0x3bd736d8	0.006567817
187	0xbcbc924b	-0.023018977
188	0xbd93a9e7	-0.07210141
189	0xbd3ecc86	-0.046581767
190	0xbd82cc83	-0.06386664
191	0xbd9660ff	-0.07342719
192	0x3d887263	0.066624425
193	0x3d01592b	0.031579178
194	0x3c24f0f5	0.010067214
195	0x3db21b46	0.08696608
196	0x3d38bbb6	0.04510089
197	0x3b25b6a6	0.002528587
198	0xbc98f48a	-0.018671293
199	0xbcbf6e7c	-0.023368113
200	0x3d6cea77	0.05784079
201	0x3da121a6	0.07867746
202	0xbd573f2d	-0.052550483
203	0xbdac54cd	-0.08414612
204	0xbd9e547b	-0.07730957
205	0xbd900901	-0.07032967
206	0x3d883d6d	0.06652341
207	0xbccdf83e	-0.025142785
208	0xbb82cbfb	-0.0039916015
209	0x3ca242ab	0.01980718
210	0xbd9b6be9	-0.075889416
211	0xbcc0ef59	-0.02355163
212	0xbcb8df6c	-0.022567473
213	0xbd8d5e95	-0.06902806
214	0x3d90a77c	0.07063195
215	0xba0950e6	-0.000523819
216	0x3ca0830e	0.019593742
217	0x3d3b4ab7	0.04572555
218	0x3d9ad1ca	0.07559545
219	0x3d6a2447	0.057163503
220	0xbb63c16d	-0.0034752742
221	0x3d87afaa	0.06625302
222	0x3d2bcefa	0.041945435
223	0x3c9dbb52	0.01925436
224	0x3c5bed62	0.013423296
225	0x3d52400e	0.05133062
226	0xbd17a590	-0.037023127
227	0x3c5cb72b	0.013471405
228	0xbd0a5e0c	-0.033781096
229	0x3ceeea2f	0.029164402
230	0x3cc39c14	0.023878135
231	0x3bdf9504	0.006823184
232	0xbd32552d	-0.04353826
233	0xbda581b2	-0.08081378
234	0x3d40ed66	0.0471014
235	0x3d8d0504	0.06885722
236	0xbca22b1b	-0.019795945
237	0x3d487cf0	0.048947275
238	0xbdadf820	-0.08494592
239	0x3d11e73f	0.035620924
240	0x3d2d434c	0.042300507
241	0x3d6961ff	0.056978222
242	0x3be128af	0.006871305
243	0x3d44656e	0.047948293
244	0x3a7668b7	0.0009399759
245	0x3b622f81	0.0034513178
246	0xbd566995	-0.052346785
247	0x3d20ed66	0.0392889
248	0x3c95c580	0.018282652
249	0x3d6b1521	0.057393197
250	0xbd028029	-0.031860504
251	0x3d4fda36	0.05074521
252	0x3d5bd577	0.053670373
253	0x3d1a8985	0.037728805
254	0x3c91f344	0.017816193
255	0xbd930af7	-0.07179826

bias f4 [128]
0	0xbd9dc4f5	-0.07703582
1	0xbdae8250	-0.08520949
2	0xbd8c7e2c	-0.06860003
3	0xbcfef943	-0.031124717
4	0xbd8d0996	-0.06886594
5	0x3cfc6403	0.030809408
6	0x3d58514f	0.052811917
7	0xbd3afe30	-0.04565257
8	0xbc0fcebe	-0.0087773185
9	0x3d8a67ac	0.06758055
10	0x3da93723	0.082624696
11	0x3d4d0a40	0.050058603
12	0xbdd94193	-0.106082104
13	0xbca37994	-0.019955434
14	0x3bf01576	0.007326777
15	0xbd99bb4a	-0.07506426
16	0xbc63fe94	-0.013915677
17	0x3d4ad4d9	0.049519394
18	0x3bf3ac78	0.0074363314
19	0x3df426e6	0.11921482
20	0xbd6f7919	-0.058465097
21	0xbd232895	-0.039833624
22	0xbcaf2e11	-0.02138427
23	0x3cc08b95	0.023504058
24	0x3d57e5fd	0.05270957
25	0x3d19e896	0.037575327
26	0xbd3ad789	-0.045615707
27	0x3cc8f2eb	0.024529895
28	0x3bb9ed56	0.0056740446
29	0xbb24363f	-0.0025056747
30	0xbc628922	-0.01382664
31	0x3e4d4e48	0.20049393
32	0xbe0b3a53	-0.13596468
33	0xbd9988bd	-0.07496784
34	0x3c7a46f6	0.0152757075
35	0xbe14748b	-0.14497583
36	0x3d95c36b	0.07312664
37	0xbd29a6c8	-0.04141882
38	0x3db5d6fe	0.08878897
39	0xbd55bfe2	-0.052184947
40	0xbd144f73	-0.03620858
41	0xbd8a2e0b	-0.06747063
42	0x3d801826	0.06254606
43	0x3e2e26b3	0.1700695
44	0xbb491bbb	-0.0030686695
45	0xbda13680	-0.07871723
46	0xbd41bbe8	-0.047298342
47	0xbd165eae	-0.036711387
48	0xbb1a1416	-0.0023510507
49	0xbd3be6f2	-0.045874543
50	0xbda67872	-0.08128442
51	0x3d6460fc	0.055756554
52	0x3d95166f	0.072796695
53	0xbc83e485	-0.016100178
54	0x3d06d48d	0.032917548
55	0xbe05d287	-0.13068591
56	0x3b34410b	0.002750459
57	0xbdb46cfe	-0.08809851
58	0xbe1431c5	-0.1447211
59	0x3e1968e4	0.14981419
60	0x3d9dfbcd	0.07714043
61	0xbe039c0b	-0.12852494
62	0xbd567cda	-0.05236516
63	0xbe07b0bd	-0.13251014
64	0xbe30b8c7	-0.17257987
65	0x3d325c9d	0.043545354
66	0x3ca718ef	0.020397631
67	0xbd455c1e	-0.048183553
68	0x3e1469e7	0.14493524
69	0xbd3bc4f2	-0.04584212
70	0x3d59794f	0.053094205
71	0xbd77b234	-0.060472682
72	0xbd9cdba3	-0.0765908
73	0xbc6b51f5	-0.014362802
74	0xbcf0d6cf	-0.029399304
75	0xbd7aecc5	-0.061260957
76	0xbdb2adff	-0.08724593
77	0x3bd45768	0.006480146
78	0x3d5a46e2	0.053290255
79	0xbe0fcca7	-0.14042912
80	0xbd23f686	-0.040030025
81	0x3db0dec4	0.08636239
82	0x3d9dd139	0.07705922
83	0xbd26e7ba	-0.040748335
84	0xbe00ab7e	-0.12565419
85	0xbcf8275d	-0.030292207
86	0xbd77c770	-0.060492933
87	0x3da9e16f	0.08294951
88	0x3d9438be	0.07237385
89	0x3d815e2b	0.06316789
90	0x3c87336e	0.016504016
91	0xbd6e0417	-0.05810937
92	0xbddacb86	-0.1068335
93	0x3d66ef6d	0.056380678
94	0xbd849927	-0.06474524
95	0x3bfc7fea	0.007705678
96	0xbcf15837	-0.02946101
97	0x3e28d35f	0.16486882
98	0x3d34e6f8	0.04416558
99	0x3e20dc94	0.15709144
100	0x3d3512d5	0.044207413
101	0xbb8c83b2	-0.0042881602
102	0x3dd61a7a	0.10454269
103	0xbaac4e11	-0.0013145824
104	0xbd6387ee	-0.055549555
105	0x3d227c46	0.039669298
106	0x3d332eaa	0.043745674
107	0x3d0d543e	0.034504168
108	0x3e06c5f7	0.13161455
109	0xbccd2410	-0.02504161
110	0xbd8d7353	-0.06906762
111	0x3cf3979a	0.029735375
112	0x3d961add	0.073293425
113	0xbda4b1b7	-0.08041709
114	0x3e0fc20e	0.1403887
115	0x3bb52c3b	0.0055289543
116	0xbe1cf063	-0.15326075
117	0xbd387f51	-0.045043293
118	0x3e32878b	0.17434518
119	0xbd82db54	-0.0638949
120	0xbcaa6d66	-0.020804118
121	0x3dc232f0	0.09482372
122	0xbcb6374a	-0.02224316
123	0x3c7f2a59	0.015574061
124	0x3c395f46	0.011314219
125	0xbe0e0da5	-0.13872392
126	0x3c90e0b5	0.017685274
127	0xbd521978	-0.05129382

weight f4 [128, 128]
0	0xbd76a3bd	-0.060214747
1	0xbaec54bd	-0.0018030625
2	0xbd106a0f	-0.035257395
3	0xbd98f42c	-0.07468447
4	0x3c929d7c	0.01789736
5	0xbbafaedd	-0.0053614215
6	0x3d24130f	0.04005724
7	0xbd816882	-0.063187614
8	0x3d6fef0d	0.058577586
9	0xbd3dd7b8	-0.046348304
10	0x3d0c213b	0.03421138
11	0x3d97fcda	0.074212745
12	0xbd9f5b93	-0.07781138
13	0x3cc8de4c	0.024520062
14	0x3da13387	0.07871156
15	0xbc9bbdf7	-0.01901148
16	0x3c7d88dc	0.015474524
17	0x3ce008bc	0.027347915
18	0x3cf17a28	0.029477194
19	0xbd272b8c	-0.040813014
20	0x3ca52dfe	0.020163532
21	0x3d29dd82	0.041471012
22	0x3da0e51a	0.07856198
23	0xbcdbeb07	-0.026845468
24	0xbd622d18	-0.055218786
25	0xbd9cc21d	-0.07654212
26	0x3c159dc4	0.009131853
27	0x3be3e156	0.0069543524
28	0xbd7c74db	-0.06163488
29	0xbd1daf9e	-0.03849756
30	0xbcaca403	-0.0210743
31	0x3ca22c27	0.019796444
32	0xbd8906b1	-0.066907294
33	0x3d325b39	0.043544028
34	0xbd7db1ea	-0.06193725
35	0x3ce64268	0.028107837
36	0x3b946d16	0.0045296056
37	0x3cf0441f	0.029329358
38	0x3cf1acae	0.029501285
39	0x3d7ccd43	0.06171919
40	0x3d5f3849	0.054497037
41	0x3d49db86	0.04928162
42	0x3bd48c26	0.0064864336
43	0xbcfeebf9	-0.03111838
44	0x3d8a32a2	0.06747939
45	0xbd73ee35	-0.059553344
46	0x3d874cc6	0.0660644
47	0xbd99295d	-0.074785925
48	0xbc266ff1	-0.010158525
49	0xbce5a6cb	-0.028033635
50	0xbd6f3df3	-0.05840869
51	0xbc18f0de	-0.009334771
52	0x3d8c4f66	0.068510816
53	0xbd9b0797	-0.07569807
54	0xbd9bbfec	-0.076049656
55	0xbcca8b97	-0.024724765
56	0x3b841113	0.0040303557
57	0x3bd9ada0	0.006643012
58	0x3d8aeac5	0.0678306
59	0xbd92ce6c	-0.07168278
60	0xbbba89f1	-0.0056927134
61	0xbd9e9911	-0.07744039
62	0x3d94da0d	0.072681524
63	0xbdabf550	-0.08396399
64	0x3d0a5b10	0.03377825
65	0x3c84dac8	0.016217604
66	0xbce1d1e2	-0.0275659
67	0x3d932b06	0.071859404
68	0xbb968a55	-0.004594127
69	0xbcf1ba31	-0.029507728
70	0x3b65c7df	0.003506176
71	0x3d0a3823	0.033744942
72	0x3d9ce8d3	0.07661595
73	0x3d9173d5	0.07102171
74	0x3cb7b2dc	0.022424154
75	0x3d8e246a	0.06940539
76	0xbc1b4899	-0.009477758
77	0x3d09adb0	0.033612907
78	0xbcd820e9	-0.02638288
79	0x3d0d66bf	0.034521814
80	0xbd2a379e	-0.041556947
81	0xbcf7b289	-0.0302365
82	0xbd64edde	-0.05589091
83	0x3d8f933b	0.07010504
84	0x3d7abe67	0.061216738
85	0xbd67b313	-0.056567263
86	0x3d6f9d72	0.05849976
87	0xbd17c733	-0.037055206
88	0x3c82281d	0.015888268
89	0xbd423066	-0.047409438
90	0xbd80aaca	-0.062825754
91	0x39178e06	0.0001445339
92	0x3c357d01	0.011077167
93	0x3b74b3b3	0.0037338554
94	0x3c4d1b7e	0.012518762
95	0xbc98691e	-0.018604811
96	0xbbff9d60	-0.007800743
97	0x3d2c645c	0.042087898
98	0x3d0281e4	0.031862155
99	0xbd23bafa	-0.039973237
100	0x3d8d53a2	0.06900717
101	0xb9e312a4	-0.00043310702
102	0xbd1b324b	-0.03788976
103	0xbb62d7bf	-0.0034613458
104	0xbd11c8a2	-0.03559173
105	0xbd428613	-0.047491144
106	0x3d64482e	0.0557329
107	0x3d30cd69	0.043164644
108	0xbd200f50	-0.039077103
109	0x3ba558ed	0.005046001
110	0xbd428263	-0.047487628
111	0x3d828b54	0.06374231
112	0xbbc65e10	-0.0060536936
113	0x3d9a7150	0.07541144
114	0xbd70d701	-0.058798794
115	0x3d5027d5	0.050819237
116	0xbceedd97	-0.029158397
117	0xbccf3ccc	-0.025297545
118	0x3b46f0fc	0.003035604
119	0xbba8ab56	-0.005147378
120	0xbca9402a	-0.020660479
121	0x3c29bd6b	0.010360102
122	0x3d1469a4	0.03623356
123	0x3d724e54	0.05915673
124	0xbcef7753	-0.029231703
125	0x3d8fb26b	0.070164524
126	0xbd2852b6	-0.041094504
127	0xbd04ab57	-0.032389965
128	0x3da32cb8	0.07967514
129	0x3c8327d2	0.016010199
130	0x3da1c701	0.07899285
131	0x3d65dd34	0.05611916
132	0x3d0e6596	0.03476485
133	0x3d5e6f99	0.054305647
134	0xbd149dee	-0.036283426
135	0xbd11d963	-0.035607707
136	0xbb228b04	-0.0024802098
137	0xbd782706	-0.06058409
138	0xbd424cd9	-0.04743657
139	0xbbc199d5	-0.005908231
140	0xba127065	-0.0005586206
141	0x3d93960a	0.07206352
142	0xbd07d4e3	-0.03316201
143	0x3d0a99f9	0.033838246
144	0xbc4b1965	-0.012396191
145	0x3d07437b	0.03302334
146	0x3d0fb7a6	0.03508725
147	0xbda8be1f	-0.08239388
148	0x3d688b3c	0.05677341
149	0x3d58d8d5	0.052941162
150	0xbcd95d7a	-0.02653383
151	0xbd08bf0e	-0.03338533
152	0xbd6e9789	-0.058249984
153	0xbd84c63e	-0.06483124
154	0xbd8a0ee6	-0.06741123
155	0x3d0293ad	0.031879116
156	0x3d9c6c5a	0.07637854
157	0xbb982fdf	-0.0046443786
158	0x3d1d14f4	0.03835006
159	0x3d1e3346	0.038623117
160	0xbd0ba8bf	-0.034096476
161	0x3d69d628	0.057089
162	0xbbcb4ae6	-0.006203997
163	0x3c829597	0.01594047
164	0x3d7e7066	0.06211891
165	0xbd82918c	-0.06375417
166	0x3dac95e1	0.08427025
167	0xbd5daa19	-0.054117296
168	0xbc934ba6	-0.017980408
169	0xbd70ba69	-0.058771525
170	0x3d6bd87e	0.05757951
171	0xbdb9e679	-0.09077162
172	0x3cfc163d	0.030772323
173	0x3d51087d	0.051033486
174	0xbd8f969a	-0.07011147
175	0x3c8b4422	0.017000262
176	0x3ce1efba	0.02758013
177	0xbb86007b	-0.0040894127
178	0xbd0a9671	-0.03383488
179	0xbd9287c1	-0.07154799
180	0x3cd59f37	0.026076896
181	0x3cd03023	0.025413578
182	0x3ce3cc52	0.027807388
183	0x3d0a2e61	0.033735637
184	0xbcf23f9d	-0.029571349
185	0xbc7acf68	-0.015308239
186	0x3d1d080e	0.03833776
187	0xbd8eaa26	-0.06966047
188	0x3d743102	0.05961705
189	0xbd6024f7	-0.054722752
190	0x3cde84f1	0.027163
191	0xbd76e1a2	-0.060273774
192	0x3d397740	0.04527974
193	0x3b511eff	0.0031909344
194	0x3d27cb64	0.040965453
195	0x3d970bed	0.073753215
196	0x3d05c5af	0.03265923
197	0x3cbdb816	0.023159068
198	0x3cd2abb7	0.025716646
199	0xbd1f16d0	-0.038840115
200	0xbcfa9ce4	-0.03059239
201	0x3cd84634	0.026400663
202	0xbd104ded	-0.035230566
203	0xbc543b2a	-0.012953559
204	0x3c717c3c	0.014739092
205	0xbd4d4e3e	-0.050123446
206	0xbd240b21	-0.040049676
207	0xbca22a17	-0.01979546
208	0x3d23f51a	0.04002867
209	0x3c17beb5	0.009261777
210	0x3d3b7127	0.045762207
211	0x3c400f66	0.011722421
212	0x3c1ab193	0.009441751
213	0x3d0ac5be	0.033879988
214	0x3da0f2cd	0.078588106
215	0x3d06b21e	0.03288471
216	0xbcf32abc	-0.029683463
217	0x3da236d5	0.07920615
218	0x3d79fb2e	0.06103056
219	0x3c1b69b3	0.00948565
220	0x3d790e6f	0.06080478
221	0x3d8cd256	0.06876056
222	0xbd2136d7	-0.03935894
223	0x3d4465c2	0.047948606
224	0x3ca9f178	0.020745024
225	0xbd3c92e7	-0.046038534
226	0x3d923f7b	0.07141014
227	0xbc92a7b6	-0.017902236
228	0xbd7f46fb	-0.06232355
229	0x3c60ac9a	0.013713026
230	0x3b33c01b	0.0027427736
231	0x3d8b35a0	0.067973375
232	0xbd82b251	-0.063816674
233	0xbd9245f6	-0.0714225
234	0xbcaa7f71	-0.020812722
235	0x3d354fbe	0.0442655
236	0xbc11a058	-0.008888327
237	0xbbf74799	-0.007546377
238	0xbd8ac776	-0.067763254
239	0x3ca03fda	0.019561697
240	0x3d488036	0.048950396
241	0x3cff81e4	0.031189866
242	0xbd0387ca	-0.03211192
243	0xbcd36e02	-0.025809292
244	0x3d7da895	0.06192835
245	0x3d61dceb	0.055142324
246	0xbc15efe8	-0.009151436
247	0x3c695907	0.014242417
248	0x3d25dac4	0.040491834
249	0x3cab2589	0.020891922
250	0x3d1235b0	0.03569573
251	0x3b41ae3f	0.0029553322
252	0xbc611633	-0.013738203
253	0xbd4002b5	-0.04687758
254	0xbaaae0ff	-0.0013037025
255	0xbcd03882	-0.02541757

bias f4 [128]
0	0xbd114723	-0.035468232
1	0x3c516ea1	0.012782724
2	0xbda2a051	-0.07940734
3	0x3dddb82b	0.10826143
4	0xbd33bf24	-0.043883458
5	0xbcb54d53	-0.022131598
6	0x3def386e	0.11680685
7	0xbcc09eb7	-0.023513181
8	0x3c789546	0.015172308
9	0x3d2b8f46	0.041884683
10	0x3d26ef2b	0.040755432
11	0x3db654b3	0.08902874
12	0xbd421e33	-0.04739208
13	0xbd4f7ba5	-0.050655026
14	0x3e0c46f2	0.13698938
15	0x3db369ce	0.08760415
16	0x3d8d2d5f	0.068934195
17	0x3c69206f	0.014228924
18	0x3e811467	0.25210878
19	0x3e27e84d	0.1639721
20	0xbc114bd2	-0.008868175
21	0xbc2683ca	-0.010163257
22	0x3c5f7e94	0.013641018
23	0x3d83c628	0.0643428
24	0xbb08dff9	-0.0020885451
25	0xbd31b5b0	-0.04338616
26	0x3c94adcd	0.01814928
27	0xbc864614	-0.016390838
28	0xbd792f98	-0.060836405
29	0x3dba2346	0.09088759
30	0xbd7631d8	-0.06010613
31	0x3cd29587	0.025706066
32	0x3c0ee992	0.00872268
33	0x3d8b80c5	0.0681167
34	0x3cf86283	0.030320412
35	0xbd764455	-0.06012376
36	0x3dafcf46	0.08584456
37	0xbceba7e2	-0.028766576
38	0xbc1aace9	-0.009440639
39	0x3ce65eeb	0.028121432
40	0x3dc2bee3	0.09509065
41	0x3e175a08	0.14780438
42	0xbc9dff80	-0.019286871
43	0xba681a33	-0.00088540016
44	0x3d6fa515	0.058507044
45	0xbbda134e	-0.0066551333
46	0x3d9eef47	0.07760482
47	0x3d5ec438	0.054386348
48	0x3a9df22a	0.001205032
49	0xbdb9d945	-0.09074644
50	0x3d4240af	0.04742497
51	0xbc5f17a1	-0.013616473
52	0x3df8e0e2	0.12152268
53	0x3e1a8589	0.15090002
54	0x3dd5e11d	0.104433276
55	0xbd86fc9c	-0.0659115
56	0x3dbe7a1a	0.09300633
57	0x3d84a17e	0.06476115
58	0x3d85635f	0.06513094
59	0x3d9f79a8	0.07786876
60	0x3c2c5279	0.01051771
61	0x3d89f615	0.067363895
62	0x3e251963	0.16122966
63	0x3d36f327	0.044665482
64	0xbd833d4f	-0.06408178
65	0x3caec9bc	0.021336429
66	0x37abf647	2.049947e-05
67	0x3d8f72f9	0.07004351
68	0x3db225d8	0.08698624
69	0x3c7ecc39	0.01555162
70	0x3d059359	0.032611225
71	0xbd784b54	-0.060618713
72	0xbcc5e61f	-0.024157582
73	0x3cc4bf61	0.024017038
74	0x3d7669e4	0.06015958
75	0xbd236b53	-0.039897274
76	0x3d9c1baf	0.07622468
77	0x3bce057b	0.0062872744
78	0x3dde16a0	0.10844159
79	0xbcc25f19	-0.023726987
80	0xbdb96dfa	-0.090541795
81	0x3e35dd03	0.1776009
82	0xbc96df38	-0.018416986
83	0x3d50b6cb	0.050955575
84	0x3d3b29f3	0.045694303
85	0x3d9e9782	0.077437416
86	0x3d948d96	0.07253568
87	0xba947b3e	-0.0011328233
88	0x3d886a46	0.06660895
89	0xbd8574c3	-0.06516411
90	0xbbaa5aee	-0.005198828
91	0xbc113bd8	-0.0088643655
92	0x3d6ee865	0.058327097
93	0xbe1806d8	-0.1484636
94	0xbc8b3744	-0.016994126
95	0x3dc7a26e	0.09747778
96	0x3c8cc70e	0.01718476
97	0x3d4f0946	0.050545953
98	0x3dcdd232	0.10049857
99	0xbd9ef701	-0.07761956
100	0xbd57f49e	-0.05272352
101	0x3d0dbab0	0.034601867
102	0x3d08c445	0.033390302
103	0xbd80df10	-0.06292546
104	0xbc2abc6c	-0.0104209
105	0x3ce26dfb	0.027640333
106	0x3cd0e92c	0.02550181
107	0xba866366	-0.0010253012
108	0x3db52fec	0.08847031
109	0xbd4e93c6	-0.050433896
110	0x3d354908	0.0442591
111	0x3d2cf715	0.042227823
112	0xbd93c930	-0.07216108
113	0x3d866348	0.06561905
114	0xbd61e174	-0.05514665
115	0x3d68c3e3	0.056827437
116	0x3d5a9906	0.05336859
117	0x3db9bae4	0.0906885
118	0xbd751592	-0.059835024
119	0x3d110bf3	0.035411786
120	0x3d3f88c3	0.046761286
121	0x3e0c6ea0	0.13714075
122	0x3dd8a6f5	0.105787195
123	0xbbc120eb	-0.0058938167
124	0xbd3585ca	-0.044317044
125	0xbd454ce7	-0.048169043
126	0x3e2f95ea	0.17147031
127	0x3e1171c2	0.14203551

weight f4 [2, 128]
0	0x3d98758f	0.074442975
1	0x3daebd7b	0.08532234
2	0x3e6496e3	0.22323184
3	0xbeb0d75e	-0.34539312
4	0x3d965056	0.073395416
5	0x3e926c50	0.2859826
6	0xbe9e3d5a	-0.30906183
7	0x3e2e545a	0.17024365
8	0xbd5a2f7c	-0.05326794
9	0x3e661bd2	0.2247155
10	0xbe7a6ca8	-0.24455512
11	0x3ead5402	0.33853155
12	0xbc36b04c	-0.011150431
13	0xbd8b289f	-0.06794857
14	0x3eb08b1d	0.34481135
15	0xbdb5346a	-0.08847888
16	0xbe1bcb3d	-0.15214248
17	0xbd4c3d61	-0.049863223
18	0xbf294dd4	-0.6613438
19	0x3effbc18	0.49948192
20	0xbd75bc86	-0.059994243
21	0x3c0ad663	0.008473965
22	0x3e2645cd	0.16237564
23	0xbdca9a03	-0.09892657
24	0x3dcecd0f	0.100977056
25	0xbdbbd83c	-0.09172103
26	0xbc26bada	-0.010176385
27	0x3c8c35e5	0.017115543
28	0x3dde5a1c	0.10857031
29	0x3dd22b3a	0.10262151
30	0xbbc9a7f2	-0.006154054
31	0x3e286722	0.16445592
32	0x3e528c3a	0.20561305
33	0xbe52b49a	-0.20576707
34	0x3ea80015	0.32812563
35	0xbd84e45a	-0.06488867
36	0xbec243ec	-0.37942445
37	0x3dd7733f	0.10520028
38	0x3b300b3a	0.002686216
39	0x3b9af712	0.00472916
40	0x3f054ae7	0.52067417
41	0x3e52fb11	0.20603587
42	0xbcf95471	-0.030435773
43	0x3d604207	0.05475047
44	0x3ea08ec1	0.31358913
45	0x3d7357c8	0.059409887
46	0xbe4f600e	-0.20251486
47	0xbd3ba960	-0.045815825
48	0x3dfd6384	0.12372497
49	0x3e59e370	0.21278167
50	0xbe12c60a	-0.14333358
51	0x3e3e8b74	0.18607885
52	0xbed0d7d3	-0.4078966
53	0x3e08ea03	0.13370518
54	0x3e0ccf25	0.13750894
55	0xbca463da	-0.020067144
56	0xbe7934d9	-0.24336566
57	0x3d989242	0.074497715
58	0xbe334d33	-0.17509918
59	0x3e8f6413	0.28006038
60	0x3e845ce2	0.25852114
61	0xbeb41438	-0.35171676
62	0x3ea8e1ff	0.3298492
63	0x3dfaa7ee	0.12239061
64	0xbc97c4e8	-0.01852651
65	0xbc9c50c4	-0.01908148
66	0xbe4a5df0	-0.19762397
67	0xbdbeccae	-0.09316383
68	0xbe1600fc	-0.14648813
69	0x3e6975d1	0.2279885
70	0x3db123ec	0.0864943
71	0xbc6becec	-0.014399748
72	0xbd9e3b62	-0.0772617
73	0x3d8fcfce	0.070220575
74	0x3d849548	0.06473786
75	0xbdac5d5a	-0.08416243
76	0x3dbee5a3	0.093211435
77	0xbc67fa32	-0.014158772
78	0x3e9a0427	0.30081293
79	0xbd1b6d6c	-0.03794615
80	0x3eace132	0.3376556
81	0xbf116a0c	-0.5680244
82	0x3c8114bf	0.015756963
83	0x3dca9ba1	0.09892965
84	0xbd76008c	-0.060059115
85	0x3e2cd60a	0.16878524
86	0xbcd269c4	-0.025685199
87	0xbc82e01b	-0.015976002
88	0xbdde56fb	-0.10856434
89	0xbd963c7a	-0.07335754
90	0x3e375f13	0.17907362
91	0xbd9efc7a	-0.07763
92	0x3d644f46	0.055739664
93	0x3e9aaf89	0.30212048
94	0x3c493fba	0.01228326
95	0xbec5c984	-0.38630307
96	0x3e113769	0.14181294
97	0xbe3472f7	-0.1762198
98	0xbece1f81	-0.4025841
99	0x3ca20e97	0.019782348
100	0x3e391086	0.1807271
101	0x3e2eb46c	0.17061013
102	0xbdd993fd	-0.1062393
103	0xbd9214a0	-0.0713284
104	0xbd3b5046	-0.04573085
105	0xbd803956	-0.06260936
106	0xbdbcc9b2	-0.09218158
107	0xbd1911a3	-0.037370335
108	0x3e631a13	0.22177915
109	0x3cf0bd23	0.029387062
110	0x3e09b909	0.13449492
111	0xbdf2782c	-0.11839327
112	0xbd8604d9	-0.06543893
113	0xbd213b97	-0.03936347
114	0x3d4c73e5	0.049915213
115	0xbe23a0fb	-0.15979378
116	0xbb5af317	-0.0033409053
117	0xbd84733f	-0.06467294
118	0xbd1c7ece	-0.038206868
119	0xbe4fdf91	-0.20300128
120	0xbe2f4891	-0.17117526
121	0xbebb68d4	-0.36603415
122	0xbe9a9157	-0.3018901
123	0xbd9d877b	-0.076918565
124	0xba36e305	-0.00069765776
125	0x3d9f7f29	0.07787926
126	0xbf068942	-0.5255319
127	0xbeed90c0	-0.46399498
128	0x3d58d8a4	0.05294098
129	0xbb819b38	-0.003955271
130	0xbe62b031	-0.22137524
131	0x3e9633a2	0.29336268
132	0x3d42ce99	0.047560308
133	0xbeb0fff5	-0.3457028
134	0x3ed3a6fe	0.41338342
135	0xbe2c52ef	-0.16828512
136	0xbd93b27b	-0.07211777
137	0xbe4f34eb	-0.2023503
138	0x3e6312c7	0.22175132
139	0xbe77866a	-0.24172369
140	0xbc39688a	-0.011316428
141	0x3dc7cb6b	0.09755596
142	0xbea6121b	-0.32435688
143	0x3e52220c	0.205208
144	0x3e076920	0.13223696
145	0x3e0b920b	0.1362993
146	0x3f29836d	0.66216165
147	0xbefbe231	-0.49196008
148	0x3d8359d0	0.06413615
149	0x3d907786	0.07054047
150	0xbe0b5134	-0.13605195
151	0x3e356d56	0.1771749
152	0xbd075595	-0.0330406
153	0x3d6b91d7	0.05751213
154	0x3def7ed0	0.116941094
155	0xbcd0b694	-0.025477685
156	0xbe009765	-0.12557752
157	0xbdf785ef	-0.12086093
158	0x3dc58340	0.096441746
159	0xbd74174c	-0.05959253
160	0xbe91c342	-0.28469282
161	0x3e85072f	0.25982043
162	0xbeb1a331	-0.34694818
163	0x3c22da86	0.009939795
164	0x3ea2c7ac	0.31792963
165	0xbe688734	-0.22707826
166	0x3d35d615	0.044393618
167	0xbd54ef2c	-0.051985905
168	0xbf09c04b	-0.5380904
169	0xbe4d109a	-0.20025864
170	0x3d534a1a	0.05158434
171	0xbe04420b	-0.12915818
172	0xbe86708a	-0.26257735
173	0xbd916dca	-0.07101019
174	0x3e8cca6a	0.2749818
175	0xbbf8ca98	-0.0075925104
176	0xbe033df3	-0.128166
177	0xbe3453fe	-0.17610165
178	0x3dab3582	0.08359815
179	0xbd9f9101	-0.07791329
180	0x3ed9eb2e	0.4256224
181	0xbe381ef0	-0.17980552
182	0xbe18bdc4	-0.1491614
183	0xbd0be669	-0.034155283
184	0x3e001877	0.12509333
185	0x3cec7311	0.028863462
186	0x3e431189	0.19049658
187	0xbe3f0bee	-0.18656895
188	0xbe8458d6	-0.25849026
189	0x3ec8752a	0.3915189
190	0xbeb52272	-0.35377842
191	0xbe1a1e7b	-0.1505069
192	0x3dfad83c	0.12248275
193	0x3dfdb3ab	0.123877846
194	0x3d716ab7	0.05893966
195	0x3d18b765	0.037284274
196	0x3e135aa9	0.14390053
197	0xbe380fb6	-0.17974743
198	0xbe37d5ba	-0.17952624
199	0xbd510706	-0.05103209
200	0x3e0108c5	0.12601002
201	0xbd9d77b2	-0.07688846
202	0xbe206a00	-0.15665436
203	0xbccaea0e	-0.02476981
204	0xbd8441fe	-0.064578995
205	0x3bdc13c6	0.0067162244
206	0xbe98811d	-0.29786006
207	0x3d56f682	0.052481182
208	0xbeb1de33	-0.34739837
209	0x3f0e61f8	0.5561824
210	0xbcc4bebd	-0.024016732
211	0xbdcea82c	-0.1009067
212	0xbcb4c8f5	-0.02206848
213	0xbe2d8383	-0.16944699
214	0x3dc7e797	0.09760969
215	0xbcf37056	-0.029716652
216	0x3db693ac	0.08914885
217	0xbced7608	-0.028986946
218	0xbdf3150a	-0.11869247
219	0x3d221a6e	0.039575987
220	0x3cece311	0.028916867
221	0xbe9ebe5f	-0.31004617
222	0xbdf04ce5	-0.117334165
223	0x3ecfb259	0.40565756
224	0xbe049e22	-0.12950948
225	0x3ddf5f0b	0.109068
226	0x3e958942	0.29206282
227	0xbc9d93a5	-0.019235441
228	0xbe8cafc0	-0.27477837
229	0xbe014967	-0.12625657
230	0x3e287a8f	0.16453002
231	0xbd4dfcf9	-0.05029008
232	0x3b1c8506	0.0023883
233	0x3d6f3943	0.05840422
234	0x3dea93e3	0.114539884
235	0xbd0d8925	-0.03455462
236	0xbe700597	-0.23439632
237	0xbd021e38	-0.0317671
238	0xbe1e2b62	-0.15446237
239	0x3d86b3b8	0.065772474
240	0x3c9fd7fd	0.01951217
241	0x3d34b28f	0.0441156
242	0x3c8e5df1	0.01737878
243	0x3e3f867d	0.18703647
244	0xbcaa9ca9	-0.020826655
245	0x3ddd646b	0.10810169
246	0xbbfa79a3	-0.0076438948
247	0x3e49a65a	0.19692364
248	0x3dc35268	0.09537202
249	0x3ecb9001	0.39758304
250	0x3ea7b327	0.3275387
251	0x3d2ea946	0.0426419
252	0xbd2f135c	-0.042743072
253	0xbd562afb	-0.052287083
254	0x3ef34848	0.47516084
255	0x3eea855d	0.45804873
